MAX_LEN 100 IWSLT
CVAE LSTM Dot Attention Inferer
No Projection in Decoder

CVAE(
  (src_embedding): Embedding(26924, 300)
  (trg_embedding): Embedding(20489, 300)
  (src_encoder): Encoder(
    (embedding): Embedding(26924, 300)
    (lstm): LSTM(300, 300, num_layers=2, dropout=0.3, bidirectional=True)
    (dropout): Dropout(p=0.3)
  )
  (trg_encoder): Encoder(
    (embedding): Embedding(20489, 300)
    (lstm): LSTM(300, 300, num_layers=2, dropout=0.3, bidirectional=True)
    (dropout): Dropout(p=0.3)
  )
  (decoder): BasicAttentionDecoder(
    (embedding): Embedding(20489, 300)
    (lstm): LSTM(600, 600, num_layers=2, dropout=0.3)
    (linear1): Linear(in_features=1200, out_features=300, bias=True)
    (linear2): Linear(in_features=300, out_features=20489, bias=True)
    (dropout): Dropout(p=0.3)
  )
  (p): Prior(
    (linear): Linear(in_features=600, out_features=300, bias=True)
    (linear_mu): Linear(in_features=300, out_features=300, bias=True)
    (linear_var): Linear(in_features=300, out_features=300, bias=True)
    (dropout): Dropout(p=0.3)
  )
  (q): LSTMAttentionApproximatePosterior(
    (linear_src): Linear(in_features=1200, out_features=300, bias=True)
    (linear_trg): Linear(in_features=1200, out_features=300, bias=True)
    (linear): Linear(in_features=600, out_features=300, bias=True)
    (linear_mu): Linear(in_features=300, out_features=300, bias=True)
    (linear_var): Linear(in_features=300, out_features=300, bias=True)
    (dropout): Dropout(p=0.3)
  )
)Epoch: 1
	VALID PB: inf NELBO: 1491.4791 RE: 2.8817 KL: 1488.5973
	TRAIN PB: inf NELBO: 1129.5849 RE: 4.0029 KL: 1125.5819
	BLEU Greedy: 17.1600
Epoch: 2
	VALID PB: 16.2906 NELBO: 2.7906 RE: 2.5312 KL: 0.2594
	TRAIN PB: 13818.5253 NELBO: 9.5338 RE: 3.0914 KL: 6.4424
	BLEU Greedy: 20.4700
	BLEU: 21.1000
Epoch: 3
	VALID PB: 13.1867 NELBO: 2.5792 RE: 2.3634 KL: 0.2158
…
